src/gesture_package/model/point_history_classifier/point_history_classifier.tflite (tflite, 6504 bytes, 6 tensors)

sequential_2/dense_8/BiasAdd/ReadVariableOp f4 [5]
000000 13 19 36 3e b9 ec 7a 3e 6c 36 0d 3e a0 fc 30 3e
       0.17783003 0.24504365 0.13790292 0.17283869
000010 ac 6c 5c bf
       -0.8610332

sequential_2/dense_7/BiasAdd/ReadVariableOp f4 [10]
000000 75 54 d3 3d 03 46 8c 3e 9b d0 8b 3f 7b c9 4e 3f
       0.10318843 0.27397165 1.0923036 0.80776185
000010 fc e3 41 3f 54 9a 8d 3f 94 ad b3 be 05 21 a7 3e
       0.757385 1.1062722 -0.35093367 0.3264238
000020 ea 06 ba be 3c 1d 9a 3a
       -0.363334 0.001175798

sequential_2/dense_6/BiasAdd/ReadVariableOp f4 [24]
000000 67 a1 2c be 66 f5 3d bd 01 b2 39 be af b3 f3 bd
       -0.16858445 -0.04637661 -0.1813431 -0.11899506
000010 90 a9 04 be 18 ad 54 be 89 10 fa bd 81 c5 21 bd
       -0.12955308 -0.20769155 -0.12210185 -0.039494995
000020 4c fe df bd ad 55 38 bd 4f 77 11 be 14 df 09 be
       -0.10937175 -0.04500358 -0.14205669 -0.13464004
000030 77 7b 05 bd d7 4a a8 bd 4d 34 e7 3d 92 a9 c8 bc
       -0.03258845 -0.082173996 0.112892725 -0.02449492
000040 63 46 20 3e a2 57 8b 3e 72 11 77 bd e6 ee b7 bd
       0.1565185 0.27215296 -0.06031937 -0.08981113
000050 24 c0 25 be 3a 65 54 bd 7d b7 20 bd 34 f2 1c be
       -0.16186577 -0.05185435 -0.039237488 -0.15326768

sequential_2/dense_6/MatMul f4 [24, 32]
000000 b4 13 72 be c0 21 bb 3c 82 77 91 bf 47 c2 c6 bf
       -0.23640329 0.022843242 -1.1364596 -1.5528039
000010 51 8c cb bf ff af c0 bf 1b 81 e4 bf e4 24 80 bf
       -1.5902196 -1.505371 -1.78519 -1.0011258
000020 d9 32 dd bf 9e 10 24 bf 53 c1 b6 bf f6 bf 8b be
       -1.7281142 -0.64087856 -1.4277748 -0.27294892
000030 d9 ec 35 bf 9a b6 70 3e 14 f4 35 bf a0 02 56 3e
       -0.71064526 0.23507157 -0.7107556 0.20899439
000040 52 9a ab be 6c 74 c8 3e 6b 51 96 bd e9 bb cf 3e
       -0.33516175 0.39151323 -0.07339748 0.40573052
000050 a8 69 9f 3e e0 b4 02 3f f7 8b 91 3e 4f f4 ea 3e
       0.31135297 0.51057243 0.28427097 0.45889518
000060 8c 63 81 3e 8b 7d dc 3e 93 c7 ef bd 23 bc ad 3e
       0.2527126 0.43064532 -0.11707988 0.339326
000070 21 eb b1 be 7c cd ed 3e a6 6e fb be 93 ea 0d 3f
       -0.34749702 0.46445835 -0.49107856 0.55436057
000080 1c 69 86 3e e8 fc fe 3d df ca 04 bd 0d 3e 27 be
       0.26252067 0.12450582 -0.032420035 -0.16332264
000090 77 3e 83 3e 4e d4 9a bd 54 ce 43 3e 0b 70 9a be
       0.25633594 -0.07560025 0.19121677 -0.30163607
0000a0 db f6 59 3e aa a2 96 be f4 91 66 3e 22 ab d6 be
       0.21285574 -0.29420978 0.22516614 -0.4192744
0000b0 ae 78 87 3e 51 33 ee be 23 bc 0b 3f 99 c6 dd be
       0.2645926 -0.46523526 0.5458395 -0.4331558
0000c0 32 74 d2 3e 97 98 ec be fa 9a cd 3e 76 88 06 bf
       0.41104275 -0.46210167 0.401573 -0.5255197
0000d0 63 03 de 3e 6e e4 f9 be 96 c7 e1 3e 17 a0 2e bf
       0.4336196 -0.4880709 0.44097584 -0.6821303
0000e0 2a f0 e5 3e ad 66 29 bf 7b 87 02 3f 16 58 5d bf
       0.44909793 -0.66172296 0.50987977 -0.86462533
0000f0 d5 60 e2 3e c3 22 5f bf 9a c1 fe 3e 94 ff 81 bf
       0.44214502 -0.8716242 0.4975708 -1.0156121
000100 90 ea ba bd 0a 99 99 3e a5 83 a8 3f 2b c7 80 bf
       -0.091267705 0.29999572 1.3165175 -1.0060781
000110 13 80 62 3f cc 5c b5 bf 0b ac a8 3e 6a 7c a7 bf
       0.88476676 -1.4168944 0.32943758 -1.3084843
000120 4a 4c 2d be 5b 95 6d bf 02 e2 32 bf 2a e8 18 bf
       -0.16923633 -0.92806023 -0.6987611 -0.59729254
000130 18 f7 64 bf 61 70 b1 be 93 3f 8b bf 83 4d 8b bd
       -0.89439535 -0.3465605 -1.0878776 -0.068018936
000140 7a 61 85 bf df aa 07 3e 47 ed 44 bf cc 0f 9a 3e
       -1.0420372 0.13248776 -0.76924556 0.30090177
000150 0f 60 00 bf 5f 84 e8 3e 30 d5 84 be 0d 25 00 3f
       -0.50146574 0.4541349 -0.259439 0.50056535
000160 0b 84 15 bd 68 aa 00 3f 0f 76 62 3e 9c 37 e6 3e
       -0.03650288 0.5026002 0.22115348 0.44964302
000170 64 4f c2 3e 9b 45 7a 3e 15 76 e1 3e a5 87 4b 3b
       0.37951195 0.24440615 0.44035402 0.0031056192
000180 88 28 a6 be 20 0d 8b 3c a4 5c 18 3f df a5 a0 3f
       -0.32452798 0.016974032 0.5951636 1.255062
000190 09 fa 6f 3f df f2 8a 3f 7b 97 17 3f 73 94 37 3f
       0.937409 1.0855368 0.59215516 0.7171089
0001a0 3e 42 83 3e f8 47 0c 3f 40 58 a9 3d 43 b9 9c 3e
       0.25636476 0.54797316 0.082687855 0.30610093
0001b0 ea b3 3e be 3f 53 65 3e 12 fe ca be b1 57 a5 3e
       -0.1862332 0.22395037 -0.39646965 0.32293466
0001c0 9e df 04 bf b1 2c 8c 3e 6e f9 19 bf 19 32 b2 3e
       -0.5190371 0.27377847 -0.60146224 0.34803846
0001d0 e7 eb 39 bf 21 e8 a6 3e 95 85 3c bf f6 b6 eb 3c
       -0.72625583 0.32598975 -0.7364133 0.028773766
0001e0 03 c4 5c bf 3e 77 ba be ef 1c 5d bf 6b 4d 0b bf
       -0.8623659 -0.364191 -0.86372274 -0.54415005
0001f0 a3 6b 44 bc e0 07 ac be f7 67 da bd 19 7a 0e bf
       -0.011988553 -0.33599758 -0.10664361 -0.55655056
000200 1f f7 38 be 48 7c 98 be a9 0b 6f bf eb e8 14 bf
       -0.18063019 -0.2978232 -0.93377167 -0.58167905
000210 81 57 cb be fa 8f e5 be bf c7 e6 be 3b d8 00 bf
       -0.39715198 -0.44836408 -0.4507427 -0.5032994
000220 be 9e 98 be e5 e9 03 bf 3a 7d fe bd ce 2c 04 bf
       -0.2980861 -0.5152877 -0.12426229 -0.51630867
000230 2f 81 9d bd 6f 49 e2 be bc ef 34 3e bd 8e ce be
       -0.076906554 -0.4419665 0.17669576 -0.40343276
000240 cd 66 17 3f ff 66 c7 bd 28 30 54 3f 98 de 43 be
       0.59141237 -0.09736442 0.8288598 -0.19127882
000250 bc 5a 27 3f 1a 3d 1e be 5b 33 0f 3f 63 fe 5a bd
       0.65372825 -0.15452996 0.5593774 -0.05346526
000260 a5 03 30 3f 0e 33 73 3e 85 9f 2f 3f 61 5c b9 3e
       0.6875556 0.23749945 0.6860278 0.36203292
000270 50 d3 b7 3e 10 a7 6c 3f 12 e6 d9 bc 7b 41 7b 3f
       0.35903406 0.9244242 -0.026598964 0.9814679
000280 b8 6c 0f 3e 94 c3 e6 bd 93 20 bf 3f 61 1c 4a bf
       0.14006317 -0.11267772 1.4931816 -0.7894955
000290 78 6a bb 3f 7e 43 67 bf 30 ef 9b 3f 79 bc 71 bf
       1.4641867 -0.9033736 1.2182369 -0.9442821
0002a0 33 91 78 3f f6 e3 83 be cb a5 33 3f 19 74 4b bd
       0.97096556 -0.25759858 0.70174855 -0.049671266
0002b0 12 be 03 3f 3a f6 82 3e f9 d2 e8 3e 3e 8b d2 3e
       0.514619 0.2557848 0.4547346 0.41121858
0002c0 6a ef cf 3e 8d f7 16 3f cd 5b 39 3e 71 67 13 3f
       0.40612346 0.5897148 0.18101425 0.57579714
0002d0 fb b4 35 3c 8e 6e 1a 3f 5b 1e 67 be 88 96 21 3f
       0.011090512 0.60324943 -0.22570173 0.6312032
0002e0 07 97 88 be eb e6 f4 3e 9b f2 2f bf 4b 82 09 3f
       -0.26677725 0.47832426 -0.6872956 0.53714436
0002f0 76 8a d3 be 0d 94 23 3f 8f e9 48 bf 81 d4 2e 3f
       -0.41316575 0.6389778 -0.7848138 0.68293005
000300 46 19 95 be d0 0f 4f bd 70 d5 0a bf bd 9b ed 3f
       -0.29120845 -0.05055219 -0.5423193 1.8563153
000310 2d 9b d7 be 04 1e d1 3f d5 ed 94 be 13 9b 97 3f
       -0.42110577 1.6337285 -0.290877 1.18442
000320 55 74 0f bf f7 aa 24 3f fb 5c f9 be a7 7f df 3e
       -0.56036884 0.6432337 -0.4870375 0.43652079
000330 9c da 4f bf fb d6 e5 3d d5 45 3c bf c9 b4 13 bd
       -0.81192946 0.11222645 -0.73544055 -0.036061082
000340 d3 e2 64 bf 99 ab 80 be 2f e9 33 bf 4c 04 2e be
       -0.89408606 -0.2513092 -0.70277685 -0.16993827
000350 42 6b 0e bf 5f 09 f5 be 35 a8 22 bf a4 98 33 bf
       -0.5563241 -0.47858712 -0.63537914 -0.70154786
000360 f2 6b a1 be ab 5b 2f bf 90 41 10 be 3c cd 28 bf
       -0.31527668 -0.6849925 -0.1408751 -0.6593816
000370 d4 77 37 3e b8 96 a8 be fd ef b5 3e ea dc 92 be
       0.17916805 -0.3292749 0.3553466 -0.2868417
000380 d6 bf 20 3e f4 5a 72 3e 6a c3 0f bf 1b c4 07 bf
       0.1569818 0.23667508 -0.56157553 -0.5303361
000390 36 b3 95 be 31 a0 a5 bc 31 6f d3 be 9e d2 69 be
       -0.2923829 -0.020217987 -0.4129577 -0.2283425
0003a0 0c 71 25 bf 4b eb f8 bd 61 1d 09 bf 54 e1 77 b9
       -0.6462562 -0.121542536 -0.53560454 -0.00023639697
0003b0 50 6b 9c bc 6c 4b 3e be 04 d7 ac 3d 2c 30 6e bd
       -0.01909414 -0.18583459 0.084394485 -0.05815141
0003c0 c4 88 43 3e d4 69 28 be 89 25 58 3e a2 9e b3 be
       0.1909514 -0.1644662 0.21108069 -0.35081965
0003d0 d3 19 fb 3e 12 47 dc be be 7e 11 3f 3f 04 22 bf
       0.4904314 -0.43022972 0.5683402 -0.6328773
0003e0 79 2e 0a 3f 17 93 44 bf 1c d5 1b 3f 1a 63 4e bf
       0.5397716 -0.7678694 0.60872054 -0.80619967
0003f0 74 1b 07 3f 33 09 87 bf d0 6b 00 3f 21 f4 8a bf
       0.52776265 -1.0549682 0.5016451 -1.0855752

sequential_2/dense_7/MatMul f4 [10, 24]
000000 52 41 17 3f 22 45 d3 3e f8 2b 4a 3f 06 da c9 3e
       0.59084046 0.41263682 0.7897334 0.3942415
000010 c3 9d 51 3f 13 b0 96 3f fc 2c 9d 3e ac 04 32 3f
       0.8188135 1.1772484 0.30698383 0.6953838
000020 91 15 6a 3f f0 ff bd 3e fe 03 00 3f 33 96 80 3f
       0.9143916 0.37109327 0.5000609 1.0045837
000030 53 22 3e 3e d3 75 7a be 89 45 4b 3e 48 35 a3 3f
       0.18567781 -0.24459009 0.19850744 1.2750635
000040 06 79 33 3e f8 e8 f4 3d 63 85 8f 3e 1a e6 9f 3f
       0.17526636 0.11958498 0.28031453 1.2492096
000050 17 56 1d 3f d1 9a ad 3f b9 37 7b 3f 20 f1 80 3f
       0.6145949 1.3562871 0.981319 1.0073586
000060 0a eb b0 3f 98 13 87 3f 9d be bb 3f 49 0e 9e 3e
       1.3821728 1.0552855 1.4667546 0.30870274
000070 d3 da 92 be 42 1e e2 3d f1 af ec 3e 91 99 7d 3f
       -0.28682575 0.110409275 0.46227983 0.9906245
000080 19 3d f3 bc f7 f6 92 3f 57 4c 54 3f e8 8d b0 3f
       -0.02969222 1.1481618 0.82928985 1.3793306
000090 5d 57 83 3f bc 24 8f 3f 12 8a 3c 3e 79 ca 0e 3f
       1.0261036 1.1183085 0.18412045 0.557777
0000a0 d6 69 a7 ba 09 95 61 3e 34 77 86 3f a1 f7 32 3f
       -0.001277263 0.22029509 1.0505128 0.699091
0000b0 1d 04 91 3f 01 0a 33 3f 98 1a 4c 3f eb af 6a 3c
       1.132938 0.6993714 0.7972808 0.014324169
0000c0 d9 b5 ef bd b3 92 8a 3c c4 aa c3 3e 20 08 90 bf
       -0.117046066 0.016915655 0.3821622 -1.125248
0000d0 3d 3d 6f bf 45 2f 70 bf 78 e6 66 bf b9 9d b4 be
       -0.9345282 -0.9382213 -0.9019542 -0.35276583
0000e0 7b 6c 97 bf e9 fb 2e be ff a8 a2 be be 72 4a 3f
       -1.1829981 -0.17088284 -0.3176956 0.7908133
0000f0 6a 1c 9c 3d 26 9c 78 be c6 6f 3b 3e 98 ac cf 3e
       0.07622607 -0.24278316 0.18304357 0.40561366
000100 61 7d 73 3e 9c 71 c5 3e 7a 05 08 bf c2 a1 b3 3e
       0.23778297 0.3856324 -0.53133357 0.3508435
000110 73 74 89 3e 58 6c f1 3d 08 89 f6 be 5a 16 4f bf
       0.26846656 0.11788243 -0.48151422 -0.8089348
000120 05 21 08 c0 f2 5e a2 bf c5 58 22 be d7 0f 4b c0
       -2.1270154 -1.2685225 -0.15854175 -3.1728418
000130 30 0e d0 bf 08 d2 11 c0 1e 75 43 c0 e1 c3 92 bf
       -1.625433 -2.2784443 -3.0540233 -1.1466027
000140 65 a9 09 c0 fb d1 27 c0 ee 40 56 bf 33 98 49 3e
       -2.150964 -2.6221912 -0.83692825 0.19686966
000150 33 1e 77 c0 8d e1 de bf e6 b8 83 3e a8 09 e5 bf
       -3.8612182 -1.7412583 0.25727004 -1.7893572
000160 b0 57 60 3e 52 fe 50 3e 6a 64 f8 bf db ef 12 c0
       0.2190845 0.20409516 -1.9405644 -2.2958896
000170 1b 79 c8 bf d4 a4 32 c0 2a 22 79 c0 1a b3 ae bf
       -1.5661958 -2.7913103 -3.8927102 -1.3648407
000180 58 94 ab 3d c2 57 55 3e 6c 90 3e be f9 68 03 3f
       0.08377904 0.20834258 -0.1860978 0.5133205
000190 01 75 f4 3d 4f 3d 6b bd 84 4a 03 3f 53 79 ef 3e
       0.11936379 -0.057431515 0.51285577 0.4677225
0001a0 6b 9b 2c 3f 36 c9 b9 bd f0 87 2e 3f ba 3c 15 bd
       0.6742465 -0.09071581 0.68176174 -0.036434866
0001b0 ca 17 23 3e 08 15 8b 3f 4d 0d c0 3e 55 0b 9b be
       0.15927044 1.0865793 0.37510148 -0.30282083
0001c0 80 a3 c5 3e e6 3c d1 3e 39 64 a1 3d b8 9b 6f be
       0.38601303 0.40866774 0.07880444 -0.23399246
0001d0 f0 ad ac bd 06 1d 9e be ac 79 b4 be e2 a7 e5 bd
       -0.084316134 -0.30881518 -0.35249078 -0.11213662
0001e0 f8 4c 9b bf b3 c6 b3 39 ac eb c9 bf a5 81 88 3e
       -1.2132864 0.00034289583 -1.5775046 0.2666141
0001f0 f0 15 df 3e 4e 3d 08 3f 75 81 1a 3e 2f 83 b0 3c
       0.43571424 0.53218544 0.15088446 0.021546928
000200 54 bd 85 3e 17 c1 47 bf 79 2e 36 bf dc d6 c6 bf
       0.26121008 -0.78029007 -0.7116466 -1.553432
000210 7a 5f d2 be 28 d1 30 bf d2 c8 db 3e cc be 81 bd
       -0.41088468 -0.6906915 0.4292665 -0.0633522
000220 f2 21 f5 3e a8 94 fb 3e f2 24 34 3d 97 f8 6e bf
       0.4787746 0.49136853 0.043980546 -0.9334807
000230 40 16 a6 bf ec 57 9a be 91 62 0b bf f2 e8 aa 3e
       -1.297554 -0.30145204 -0.54447275 0.33380848
000240 b1 8c 6a 3f 4a 87 c8 bd 8b ca e3 3e b8 b4 c7 be
       0.9162093 -0.09791429 0.44490466 -0.39005065
000250 43 da ec 3e 30 d8 4a 3e 63 39 8b be fa 51 90 3c
       0.4626027 0.19809031 -0.2719222 0.017617214
000260 52 e2 d0 3e 78 08 95 3e 31 e6 af 3e f1 4f 09 3f
       0.4079767 0.29108024 0.3435531 0.53637606
000270 a4 64 7b 3f cb 97 c2 be ed f8 31 3f 72 2e 35 3e
       0.9820044 -0.38006434 0.69520456 0.17693499
000280 ba 4d 2c 3f 13 45 dc be 8e 3e 3b bd ce 43 95 3e
       0.673061 -0.4302145 -0.045713954 0.29153293
000290 0d 88 41 3f 3a 34 f8 3e 0c 94 ff 3e 93 15 72 3e
       0.7559822 0.48477346 0.49917638 0.23641042
0002a0 5d a6 b1 3f 56 2b 94 3f fe a2 0a 3e 8c f1 09 3f
       1.3878895 1.1575725 0.13538739 0.53884196
0002b0 ea 9b 37 3f fc ae 53 3f a6 b8 dc 3e e9 f3 7f 3f
       0.7172228 0.8268888 0.43109626 0.9998155
0002c0 d1 cb dd 3d 3d 71 7b 3f a0 bc a5 3f 16 1e d8 3e
       0.108298905 0.9821966 1.2948189 0.42210454
0002d0 65 d5 59 3f e4 cc 01 bd 0f a9 3d 3e c0 98 57 3f
       0.8509124 -0.03168954 0.18521522 0.84217453
0002e0 dd c3 9c 3e 12 bd 98 3e 01 1f 4f 3f 32 0b 22 3f
       0.30618182 0.2983175 0.80906683 0.6329833
0002f0 81 a8 17 3f 2e 4a 8e 3f 6b fe c3 3e b2 92 20 3f
       0.5924149 1.1116388 0.38280043 0.6272384
000300 5f b2 b8 3e 2e 84 42 3e 7e 7a 99 3e 53 53 3d 3f
       0.36073586 0.18995735 0.29976267 0.7395527
000310 79 b1 3a bf af 1f 32 bd 6f 18 2d 3f 1c b1 d4 3e
       -0.7292705 -0.043487247 0.6761541 0.41541374
000320 b9 3b 11 3e 63 30 1a 3f 2d b1 15 3e 72 14 ec 3e
       0.14182939 0.6023008 0.14618368 0.4610935
000330 05 08 da 3e 1b 85 6c 3f 38 9a d7 bf 4c 66 5c bf
       0.42584243 0.923906 -1.6843939 -0.8609359
000340 e0 19 f0 bf 69 93 28 3f 2b 7c 3b 3f 05 f5 e0 be
       -1.8757896 0.6584993 0.7323634 -0.43936935
000350 f1 4d 15 bf d8 7c e2 be 40 bf b9 3b 42 c7 52 bf
       -0.58322054 -0.44235873 0.0056685507 -0.82335293
000360 0a ef 5b be 53 82 43 3f c8 50 09 bf 5c f1 02 3f
       -0.21477905 0.76370734 -0.5363889 0.51149535
000370 99 05 8a 3f 21 a6 97 3f fe 47 f7 3e b0 24 16 3f
       1.0782958 1.1847574 0.48297113 0.5864973
000380 cb f2 41 3f aa 27 8a be 66 c9 71 3f 58 d0 a2 bd
       0.757611 -0.26983386 0.94447935 -0.07949895
000390 ff 6a 1d 3f 8e 13 5c 3f 57 29 d9 3d 54 23 e3 3e
       0.6149139 0.8596734 0.10603588 0.4436289
0003a0 5b 62 a3 3d 40 d6 75 bd 6d fb a2 3f 44 5d f0 be
       0.07977744 -0.060018778 1.2732979 -0.46946156
0003b0 26 b7 49 be b7 6e f6 3e f7 6e cd be 82 b2 9e 3f
       -0.19698772 0.48131344 -0.40123722 1.2398226

sequential_2/dense_8/MatMul f4 [5, 10]
000000 7c 29 69 c0 c2 59 62 c0 57 13 8b 3f be 21 33 40
       -3.643157 -3.5367284 1.0865277 2.7989345
000010 c8 ba 45 bf 27 68 e8 3f dd c1 4d c0 4c bc 45 c0
       -0.7723813 1.8156785 -3.2149575 -3.0896177
000020 4d a9 2c c0 c8 b7 84 c0 3c 0a 65 bc 74 68 b3 be
       -2.6978333 -4.147434 -0.013979491 -0.3504063
000030 61 5a e5 bf 73 2f d2 bf cc bf 8b 3f 92 0e 22 3f
       -1.7918206 -1.642073 1.0917907 0.6330348
000040 2c e5 44 c0 ad e6 e7 3e 5f ae cf bf 62 3b c3 3f
       -3.0764875 0.4529318 -1.6225089 1.5252497
000050 f1 2d 7e be 4d c9 a0 3f f1 15 a2 3f fa ae 90 bf
       -0.24822213 1.2561432 1.2662946 -1.1303399
000060 89 01 af 3e 15 b6 06 c0 6e ce ac 3e aa 22 9b 3e
       0.3418086 -2.1048634 0.33751243 0.30299884
000070 25 52 3f bf ab ba fa be 66 53 56 3f c2 34 0b 3f
       -0.7473472 -0.4897054 0.83721006 0.5437738
000080 64 d7 e8 be 0f d2 70 bf ba 39 28 bf da 52 24 3c
       -0.4547683 -0.94070524 -0.65713084 0.010029519
000090 62 de 91 3a 9d da 46 3f 7d 19 b0 bd 59 eb 13 bd
       0.0011128897 0.7767733 -0.085986115 -0.036113117
0000a0 8f ee 8f 3f ed 16 dd 3c ee 10 88 bd ef c0 a1 3f
       1.1244677 0.02698847 -0.06643854 1.2637004
0000b0 da 94 9a bf bb 72 91 be e5 62 87 3f fb a1 82 3e
       -1.2076676 -0.28407845 1.0577055 0.25514206
0000c0 6f 46 bf 3f 5f 7e 3b 3d
       1.494337 0.045774814
