src/gesture_package/gesture_package/model/keypoint_classifier/keypoint_classifier.tflite (tflite, 6588 bytes, 6 tensors)

sequential/dense/BiasAdd/ReadVariableOp f4 [20]
0	0xbf20ff0a	-0.6288916
1	0xbf24c6bd	-0.6436575
2	0x3de22710	0.11042607
3	0xbf1fbfa4	-0.62401795
4	0xbe8f2665	-0.2795898
5	0xbf29fbf4	-0.66400075
6	0xbf24c273	-0.64359206
7	0xbf0799e2	-0.5296918
8	0x3f27f20b	0.65603703
9	0xbf1c4a0a	-0.61050475
10	0xbee84cf8	-0.45371222
11	0x3e4420f2	0.19153193
12	0xbf5f3380	-0.8718796
13	0xbf3b13d4	-0.7307713
14	0xbe925407	-0.28579733
15	0xbf20d46d	-0.62824136
16	0xbf589c72	-0.84613717
17	0xbef8e56e	-0.4861254
18	0xbebcc901	-0.36872104
19	0x3ec532eb	0.3851541

sequential/dense_2/BiasAdd/ReadVariableOp f4 [5]
0	0xbe751c89	-0.23936667
1	0xbeada72f	-0.33916613
2	0x3f0ecb80	0.55779266
3	0xbe44facc	-0.19236296
4	0x3ef1a160	0.47193432

sequential/dense_1/BiasAdd/ReadVariableOp f4 [10]
0	0x3ec36f1b	0.38170704
1	0xbe8830c9	-0.2659972
2	0x3f3ed2d1	0.7454043
3	0x3ea6f85b	0.32611355
4	0xbe31e101	-0.17370988
5	0x3f4a67f0	0.79064846
6	0x3eec8cad	0.46201077
7	0x3e9ffd51	0.31247953
8	0xbe97cf75	-0.29650465
9	0x3c4112d2	0.011784272

sequential/dense/MatMul f4 [20, 42]
0	0xbd15ed20	-0.036603093
1	0xbe5847d2	-0.21121147
2	0xbe6cc85d	-0.23123308
3	0xbe255b6a	-0.16148153
4	0xbe25d380	-0.16193962
5	0xbe10102c	-0.14068669
6	0x3e17cf32	0.14825132
7	0xbdf62096	-0.12017934
8	0x3e1def36	0.15423283
9	0xbd849121	-0.06472994
10	0xbe8fe24f	-0.28102347
11	0xbf01b4b5	-0.5066636
12	0xbe272987	-0.16324435
13	0xbe137e7a	-0.14403716
14	0xbd60fdaf	-0.05492943
15	0x3b83bc46	0.0040202467
16	0x3c93b810	0.018032104
17	0x3da55ecf	0.08074724
18	0x3b8c6310	0.00428427
19	0xbea5e206	-0.32399005
20	0xbd7be974	-0.061501935
21	0xbd456056	-0.048187576
22	0x3cbee9fd	0.023304934
23	0x3dd53f4d	0.10412464
24	0x3dad3292	0.08456911
25	0x3e167fd6	0.14697203
26	0xbd0a0cb7	-0.033703532
27	0xbf15a134	-0.584491
28	0x3b0d00b1	0.0021515305
29	0xbdab1cd9	-0.08355112
30	0x3dc5127e	0.09622668
31	0x3e0c0726	0.13674602
32	0x3d4b2592	0.049596377
33	0x3e39b331	0.18134762
34	0x3d193aae	0.037409477
35	0xbf1f59d9	-0.6224647
36	0xbc98aca1	-0.018637003
37	0xbe395610	-0.18099236
38	0x3d054d6b	0.032544535
39	0x3ddc1550	0.107462525
40	0x3d3664c3	0.044529688
41	0x3e32943c	0.1743936
42	0xbd2673c8	-0.04063776
43	0xbda82002	-0.0820923
44	0x3ecb42c7	0.39699385
45	0xbee982a0	-0.4560747
46	0x3e8d0549	0.27543095
47	0xbe3082c1	-0.17237379
48	0x3eb206db	0.34770855
49	0xbd9e899a	-0.07741089
50	0x3e116f71	0.14202668
51	0xbd908dbb	-0.07058283
52	0x3f105cc9	0.5639158
53	0xbd781b00	-0.060572624
54	0x3df6b2a1	0.120457895
55	0xbdb887e8	-0.09010297
56	0xbe134ef2	-0.14385584
57	0x3dc3bfad	0.09558044
58	0xbe847ec5	-0.25877967
59	0x3e1686e2	0.14699891
60	0x3f13e714	0.5777447
61	0xbdd119b4	-0.102099806
62	0x3df143cd	0.1178051
63	0x3d5b2259	0.053499553
64	0xbe8f20ab	-0.2795461
65	0x3d557077	0.052109208
66	0xbea03b29	-0.31295136
67	0x3d5e6a0a	0.054300345
68	0x3ef95214	0.48695433
69	0xbc27fcd5	-0.010253151
70	0x3e42afe5	0.19012411
71	0xbd2be25b	-0.041963916
72	0xbe223418	-0.15840185
73	0x3da23b96	0.07921521
74	0xbe7f0d8c	-0.24907511
75	0x3dc393b5	0.09549657
76	0x3f221d08	0.6332555
77	0xbeaf8f2b	-0.34288916
78	0x3ead3aa7	0.3383381
79	0xbe355e66	-0.17711791
80	0x3d9d1382	0.076697364
81	0x3d51da1f	0.051233407
82	0xbda01e9d	-0.07818339
83	0x3da498d6	0.08036964
84	0xbe6c162e	-0.23055336
85	0xbe161a01	-0.14658357
86	0xbf18d9ec	-0.5970752
87	0x3edfe43d	0.4372882
88	0xbed2eb74	-0.4119526
89	0x3e868f28	0.26281095
90	0xbe9134df	-0.2836065
91	0x3e440f92	0.19146565
92	0x3d6907ad	0.056892086
93	0x3e25db9f	0.1619706
94	0x3dc491b8	0.09598106
95	0xbeff9510	-0.49918413
96	0xbe62b83d	-0.22140594
97	0xbe385937	-0.18002783
98	0xbdc7fe40	-0.09765291
99	0x3cb88bea	0.022527654
100	0x3e464197	0.19360958
101	0x3d929daa	0.07158978
102	0x3d845874	0.064621836
103	0xbf6abc7f	-0.9169387
104	0xbe79e067	-0.24402009
105	0xbd8c9a16	-0.06865327
106	0xbdcdde60	-0.1005218
107	0x3df5718d	0.11984549
108	0xbdab00d2	-0.08349766
109	0xbc7ec3b5	-0.01554959
110	0x3e90437b	0.28176484
111	0xbf98f7f3	-1.1950668
112	0x3de08559	0.10962934
113	0x3dafeb04	0.085897475
114	0x3d2f5691	0.042807166
115	0x3d7cd4eb	0.061726492
116	0x3d9000b5	0.07031385
117	0x3cfac76a	0.030612666
118	0x3ec86900	0.3914261
119	0xbf83a2b4	-1.0284028
120	0x3df3399b	0.11876222
121	0xbd5c7158	-0.05381903
122	0x3d59b786	0.053153537
123	0x3ea7546d	0.326816
124	0x3b3e2424	0.002901324
125	0x3e58e6d5	0.21181805
126	0xbda92aa4	-0.08260086
127	0xbbb74c40	-0.0055938065
128	0x3e58630d	0.21131535
129	0x3db040a3	0.086060785
130	0x3e0b023e	0.13575074
131	0xbdb02228	-0.08600265
132	0x3e33d196	0.1756042
133	0xbd859d98	-0.06524199
134	0x3dada3be	0.08478497
135	0xbdb0a49b	-0.08625146
136	0xb99130e8	-0.00027692993
137	0x3da35152	0.07974495
138	0xbd449db3	-0.048001956
139	0xbd37693a	-0.044778086
140	0xbccab4e1	-0.024744453
141	0xbc68b9ce	-0.014204456
142	0xbd1fc6df	-0.039008018
143	0x3d0572ae	0.03258007
144	0xbd438bf2	-0.047740884
145	0x3e3cf798	0.18453825
146	0xbcc55ca4	-0.024092026
147	0xbd514721	-0.051093224
148	0xbd47237c	-0.048617825
149	0xbedd177f	-0.4318199
150	0x3e07367a	0.13204375
151	0xbed0b041	-0.4075947
152	0x3bf70785	0.007538738
153	0x3e85e73c	0.2615298
154	0x3dc670e7	0.09689503
155	0xbe36dd95	-0.17857964
156	0x3d575574	0.05257173
157	0xbf08b72c	-0.534045
158	0x3dea080b	0.11427315
159	0xbf6f1797	-0.9339537
160	0x3d5803e4	0.052738085
161	0x3ee064f7	0.4382703
162	0xbd137146	-0.035996698
163	0xbcaed5c1	-0.02134216
164	0xbd0a3c59	-0.03374896
165	0xbecb8761	-0.39751723
166	0x3d49d9eb	0.04928009
167	0xbeee2e19	-0.46519545
168	0x3e0c68be	0.13711831
169	0xbe5c930f	-0.21540473
170	0xbdfadd8e	-0.122492895
171	0x3eaa1f55	0.3322703
172	0xbe5a78ed	-0.21335192
173	0x3e0fd0d9	0.14044513
174	0xbee45e28	-0.44603086
175	0x3d2a43d5	0.041568596
176	0xbf3d76c8	-0.7400937
177	0x3dc6c923	0.097063325
178	0x3e8e7f3b	0.27831444
179	0x3e0ae6f4	0.13564664
180	0x3d9ee679	0.07758803
181	0x3db79363	0.08963659
182	0x3d4be4a6	0.049778603
183	0x3dc11f02	0.094297424
184	0xbd163253	-0.036669087
185	0x3d90f949	0.07078797
186	0x3e4b49fb	0.1985244
187	0x3d36d546	0.044636987
188	0x3dfc05bf	0.123057835
189	0x3d682676	0.056677304
190	0x3e75581c	0.23959392
191	0xbe29563e	-0.16536805
192	0x3f0fba86	0.5614399
193	0xbeb53dd5	-0.35398737
194	0xbdb9d29e	-0.09073375
195	0xbcfa00f6	-0.030518036
196	0xbdc87f55	-0.09789912
197	0x3cc02f89	0.023460167
198	0x3ec958f3	0.39325675
199	0xbef0fc4b	-0.47067484
200	0x3f5cb7bc	0.86217856
201	0xbeb324f9	-0.34989145
202	0xbe80088a	-0.25006515
203	0xbd93d7a9	-0.07218868
204	0xbe6e18fe	-0.23251721
205	0x3d42aca9	0.047527943
206	0xbd677d44	-0.056515947
207	0xbcb3b53b	-0.021937003
208	0x3e8df448	0.27725434
209	0xbea7a623	-0.3274394
210	0xbd6843b8	-0.056705207
211	0xbdffb14c	-0.124849886
212	0x3f523732	0.8211547
213	0x3e254c78	0.16142452
214	0x3f237d79	0.6386333
215	0xbd94c171	-0.072634585
216	0x3f32415d	0.69630986
217	0xbdbff37c	-0.09372613
218	0x3eb709ad	0.3574957
219	0xbdee151c	-0.1162512
220	0x3ee4c3ac	0.44680536
221	0x3e91daf3	0.28487357
222	0x3e43d5b2	0.19124487
223	0x3e0acdc7	0.1355506
224	0xbe8b8d60	-0.27256298
225	0x3e21237e	0.15736195
226	0xbee3ab96	-0.44466847
227	0x3e648e1b	0.22319834
228	0x3f0ea4c0	0.5572014
229	0x3e5cca0b	0.21561448
230	0x3e8e24dc	0.27762496
231	0xbdf46534	-0.119333655
232	0xbd8696e2	-0.06571747
233	0xbe109d8f	-0.14122604
234	0xbd25d2d5	-0.04048427
235	0xbe08c25d	-0.13355394
236	0x3f16e3da	0.58941424
237	0xbc9cb949	-0.01913132
238	0x3e939958	0.2882793
239	0x3d113974	0.035455182
240	0x3db5bf9e	0.08874439
241	0xbc7254a4	-0.014790688
242	0x3c830b7c	0.015996687
243	0xbc9d9ba1	-0.019239249
244	0x3ed97d8d	0.424786
245	0xbe889c95	-0.26681963
246	0x3e8ff9f4	0.28120387
247	0x3c022d2c	0.00794534
248	0x3e0a5a5f	0.13511036
249	0x3d0240af	0.03179997
250	0x3d79d89f	0.0609976
251	0x3d722330	0.05911559
252	0xbdbb1ef8	-0.09136766
253	0xbe869d8a	-0.26292068
254	0x3e816410	0.25271654
255	0x3f3ca9c6	0.73696554

sequential/dense_1/MatMul f4 [10, 20]
0	0xbda8b6eb	-0.08238014
1	0xbec0ea59	-0.37678793
2	0x3df19187	0.11795335
3	0x3ddcacb5	0.10775129
4	0x3d1f373a	0.038871028
5	0x3e3b8e01	0.18315889
6	0x3edda68c	0.43291128
7	0xbe9db20e	-0.30799907
8	0xbd977683	-0.07395651
9	0x3d224ccb	0.039624017
10	0x3f1bd923	0.608782
11	0xbf35ef0c	-0.7106788
12	0x3ea7cac3	0.32771882
13	0x3e19264a	0.14956012
14	0xbd99ac42	-0.07503559
15	0xbcc4712a	-0.023979742
16	0x3f064714	0.52452207
17	0x3dee8a66	0.11647491
18	0x3ef19a3f	0.47187993
19	0x3d2c5e72	0.042082258
20	0x3f0c11c0	0.54714584
21	0x3e3c2509	0.18373503
22	0x3eee7c8f	0.46579406
23	0x3efdad22	0.49546152
24	0x3f0ee34a	0.55815566
25	0x3ee2584c	0.4420799
26	0x3f5bdf4d	0.85887605
27	0x3c6dbe1c	0.014510658
28	0x3f2126ba	0.6294972
29	0x3e613692	0.21993473
30	0xbe869e58	-0.26292682
31	0x3e6b3ee4	0.2297321
32	0x3efc6514	0.49295866
33	0x3ec2615e	0.3796491
34	0xbe6c92a0	-0.23102808
35	0x3f468477	0.77545875
36	0x3ecdef5f	0.40221688
37	0x3ed9b0cd	0.425177
38	0x3e5de264	0.21668392
39	0x3f12eeca	0.57395613
40	0x3f351246	0.7073101
41	0x3e831446	0.25601405
42	0x3f109e00	0.5649109
43	0xbeeaf61c	-0.45890892
44	0xbd8fb101	-0.07016183
45	0xbda3319e	-0.07968448
46	0xbf1178e3	-0.56825083
47	0xbd228d29	-0.039685402
48	0x3e8840d9	0.26611975
49	0xbf18aafe	-0.59635913
50	0xbf39c009	-0.7255865
51	0x3e201047	0.1563121
52	0xbe89f487	-0.26944372
53	0xbf39d441	-0.725895
54	0x3f555c21	0.833437
55	0xbba140ec	-0.0049210694
56	0xbe408066	-0.1879898
57	0xbf4b9743	-0.7952768
58	0xbf81222a	-1.0088551
59	0x3ef4b832	0.4779678
60	0x3e0d646d	0.1380784
61	0x3f27982f	0.6546659
62	0x3dbdb604	0.09263232
63	0x3d484d94	0.04890211
64	0x3dc93acb	0.09825667
65	0xbf35e8a6	-0.7105812
66	0x3d3e3e73	0.046446275
67	0x3ed78c2b	0.42099127
68	0x3c552366	0.013008928
69	0x3e1a3b6e	0.15061733
70	0x3e116c7d	0.14201541
71	0xbdd6edf4	-0.10494605
72	0x3f719196	0.9436277
73	0x3f67cb0b	0.90544194
74	0xbe895c2f	-0.26828143
75	0x3de80321	0.11328722
76	0x3f463f33	0.77440184
77	0x3cb75f71	0.022384377
78	0xbcc0c421	-0.023531022
79	0x3dffde7b	0.12493607
80	0x3db240b6	0.08703749
81	0x3e8b3255	0.27186838
82	0x3c80e0cd	0.015732193
83	0xbe82bb78	-0.25533652
84	0x3f41beb5	0.7568162
85	0xbd1f24c1	-0.03885341
86	0xbebfb36f	-0.37441584
87	0xbe247249	-0.16059221
88	0xbd836b44	-0.06416944
89	0x3f7f23e1	0.9966412
90	0x3f7d212c	0.9887874
91	0xbde2adb7	-0.1106829
92	0xbd999d48	-0.07500702
93	0xbc190989	-0.009340652
94	0xbdb4264d	-0.08796368
95	0x3f20386e	0.62586105
96	0x3e2858ea	0.16440168
97	0xbeb24218	-0.3481605
98	0xbe94c0b1	-0.29053262
99	0x3c21b92a	0.009870807
100	0xbfa83b6f	-1.3143138
101	0xbf19a972	-0.6002418
102	0xbea5a547	-0.3235266
103	0x3f4b10db	0.79322594
104	0x3c9b1680	0.018931627
105	0xbefb571b	-0.49089894
106	0x3c582f24	0.013194833
107	0xbe883fc2	-0.26611143
108	0xbe9e061c	-0.30864036
109	0xbf0d3ad4	-0.5516789
110	0x3e926565	0.28592983
111	0xbfa018eb	-1.2507604
112	0x3f064de0	0.5246258
113	0x3f29167e	0.66049945
114	0x3f2d5c09	0.6771856
115	0x3f4d793e	0.80263126
116	0x3e8f8a5f	0.28035256
117	0xbe8eeec3	-0.27916536
118	0x3f289736	0.6585573
119	0xbe905d80	-0.28196335
120	0x3f0891b4	0.53347325
121	0x3f24f3b2	0.6443435
122	0x3e914a59	0.28377035
123	0xbcaa14df	-0.020761905
124	0x3f1e1486	0.61750066
125	0x3eeb0ccb	0.45908198
126	0xbe3e7185	-0.18597992
127	0x3e75983a	0.23983851
128	0x3ecdf3e9	0.4022515
129	0xbdea63d7	-0.11444824
130	0xbe1523e9	-0.1456448
131	0x3f13dfa3	0.5776312
132	0x3e13c560	0.14430761
133	0xbd6390c6	-0.05555799
134	0x3ebefb02	0.3730088
135	0xbf00e1fe	-0.50344837
136	0xbd9a9ab3	-0.07549038
137	0x3e5f096a	0.21780935
138	0xbec84984	-0.39118588
139	0x3ef6036b	0.48049483
140	0xbe11714e	-0.14203379
141	0xbdf35f4a	-0.11883409
142	0x3f2a1c4b	0.6644942
143	0x3ef75453	0.48306522
144	0x3eb0da01	0.34541324
145	0x3e14c81f	0.14529465
146	0x3f54ad3e	0.83076847
147	0xbf0e6648	-0.5562482
148	0x3ee0f651	0.43937925
149	0x3d92001a	0.071289256
150	0x3e635e7b	0.2220401
151	0x3f0c5a3b	0.5482518
152	0xbe4e16d3	-0.20125894
153	0xbedcc0e5	-0.43115917
154	0x3d3e4bfd	0.046459187
155	0x3e5d984b	0.21640126
156	0xbeba0779	-0.36333826
157	0x3f1badee	0.6081227
158	0x3f2ff4f3	0.6873314
159	0x3f0cf257	0.5505728
160	0xbe9045ad	-0.28178158
161	0x3e6593b1	0.22419621
162	0xbd53cafc	-0.051707253
163	0xbe995ece	-0.29955143
164	0xbda89466	-0.0823143
165	0x3c8a85f8	0.016909584
166	0x3ec31341	0.38100627
167	0xbe63be95	-0.2224067
168	0xbeb921da	-0.3615864
169	0x3eee4485	0.4653665
170	0xbe9de151	-0.30835965
171	0x3f35face	0.7108582
172	0xbdd09d7f	-0.1018629
173	0xbda22be4	-0.07918528
174	0x3e6536ad	0.22384138
175	0xbef9649d	-0.48709574
176	0xbec5effa	-0.3865965
177	0x3eec23f6	0.46121186
178	0xbec8f226	-0.39247245
179	0xbd437a1f	-0.047723886
180	0x3ec56a60	0.3855772
181	0x3f256a69	0.64615494
182	0x3e941403	0.28921518
183	0xbb95404e	-0.004554785
184	0xbd19a7dc	-0.0375136
185	0x3f4daedf	0.8034496
186	0xbcdb498b	-0.026768466
187	0x3fa84ca8	1.3148394
188	0xbe415caa	-0.18883005
189	0x3ebbfdfb	0.3671721
190	0x3eaaa6b9	0.33330324
191	0xbd6ad408	-0.057331115
192	0x3f830bda	1.0237992
193	0x3ea00065	0.312503
194	0xbef2c41e	-0.4741525
195	0x3d3d3e19	0.0462018
196	0x3f1556cc	0.58335567
197	0xbd71b6ca	-0.05901221
198	0xbed460bd	-0.41480055
199	0xbd10bf2c	-0.035338566

sequential/dense_2/MatMul f4 [5, 10]
0	0x3f04a2c2	0.5181085
1	0x3ea7599f	0.32685563
2	0xbe8a55e2	-0.27018648
3	0xbf9d6608	-1.2296762
4	0x3fa708af	1.3049525
5	0xbe46c6b5	-0.19411738
6	0x3db70d86	0.08938126
7	0x3f5a5f05	0.8530124
8	0x3f5f75c7	0.8728909
9	0xbf869fea	-1.0517552
10	0xbe0410bb	-0.12897007
11	0x3f60f650	0.87875843
12	0xbd323647	-0.043508794
13	0x3f60fcc9	0.8788572
14	0xbf14f65c	-0.58188415
15	0xbef3d121	-0.4762049
16	0x3e9dc3f4	0.30813563
17	0xbe65edf1	-0.22454049
18	0x3c8c6281	0.017136814
19	0x3ea0d1c0	0.31410027
20	0xbf2cf012	-0.6755382
21	0xbe9c1f17	-0.3049247
22	0x3f853750	1.0407505
23	0xbf171cd7	-0.5902838
24	0xbfb30e41	-1.3988725
25	0xbd2381a6	-0.039918564
26	0x3f450683	0.7696306
27	0x3d711b6a	0.058864035
28	0xbf241dcb	-0.6410796
29	0xbedc080c	-0.4297489
30	0x3ddf90d9	0.109162994
31	0xbf651c72	-0.8949653
32	0xbf35de59	-0.710424
33	0x3e32ddac	0.17467374
34	0x3f5b1bb5	0.8558915
35	0xbf29ad1a	-0.6627976
36	0x3e8f56eb	0.27996
37	0xbfc38ec6	-1.5277946
38	0xbf00c733	-0.50303954
39	0x3f56830d	0.8379372
40	0x3f84cad1	1.0374395
41	0xbfa67b04	-1.3006291
42	0xbf5644f6	-0.83698976
43	0x3e72f48a	0.23726097
44	0xbf1dbe64	-0.6161864
45	0x3f9087d7	1.1291455
46	0xbf8d49ee	-1.1038187
47	0xbf424f7c	-0.75902534
48	0xbb877b69	-0.0041345847
49	0xbf2a40f0	-0.66505337
